grasp_mobilenet.pt (torch, 395685 bytes, 95 tensors)

backbone1.0.0.weight f4 [16, 3, 3, 3]
00000000: 0880 663f ac97 913f 355e 853f fe43 793f
00000010: bbc4 9c3f 6491 753f cfb5 b83c ccdf a43d
00000020: c43b 4dbc 3cc9 44bf 8930 7fbf 7748 56bf
00000030: 426f 49bf 06b0 7dbf 19d2 4abf 95ef c7bd
00000040: d17d 4bbe 3d80 83bd 4c41 36bd cf2e e2bd
00000050: 83f4 9ebd 95c8 4ebd 9f70 a6bd e3e0 c1bd
00000060: 7ecf 78bd 279b b5bd f6ac 19bd 58f7 55bc
00000070: 71ef 52bc 057e 153a c541 ca3e 001a 453f
00000080: 64ce d13e 29ff babe f44d 32bf caa1 c9be
00000090: bbfc e73c c9f2 8d3c cb9b fa3b 67f6 503f
000000a0: e9c7 d93f 2675 683f 85ec 45bf 6898 d6bf
000000b0: d11f 6dbf a304 023d b463 103d 472f 9f3c
000000c0: 1a72 3b3e 75c3 a73e ab03 153e 64c8 06be
000000d0: d1f7 88be 0a35 18be b3b9 753e 1304 003f
000000e0: 483e bf3e 7655 173f 816c 5f3f 6fac 213f
000000f0: ff13 913e bddb 133f dafc f03e 453c 24bf
00000100: 4195 aebf 8a7d 6abf 9c8b 9abf 734a 07c0
00000110: 5d3c d6bf bfb9 31bf ae70 b0bf b564 6fbf
00000120: 8454 fe3e fc60 633f f72f 2e3f 7c7b 503f
00000130: 97e7 9d3f 0417 803f edd4 df3e 0183 5e3f
00000140: 5a69 363f 9c3a 293c 3b9f ae3e b0e8 f5be
00000150: cbb4 cabd 2a06 aa3e 544e 4c3e d067 d73e
00000160: 6f63 acbe 8e75 2b3e b112 afbe 318e 023e
00000170: ecb1 3a3e dccb b7bd 8b91 3abe 76f9 f83c
00000180: eb17 1940 d5fc f9bb f20c 63be f419 4bbd
00000190: 33b5 14be 5a77 c83c c102 833e 3831 843d
000001a0: 4746 d0bd 1215 103e 3401 833e dbb5 90bd
000001b0: 9e8a 8abe c7f4 d53e e9af 4abe 940f ecbe
000001c0: 4c73 283f 7f81 4abe 66cd 6cbe 9b58 bf3e
000001d0: 5421 0dbe 0c36 1ebf b8e2 753f bd03 b6be
000001e0: b509 7ebf 69b6 be3f 445d d4be d110 e0be
000001f0: 6dbf 3f3f 2f4e 66be 9323 c5bd 9825 783e
00000200: eedb 05be 5056 39be 601e a83e ec7e c7bd
00000210: 079a 8ebd 8212 3f3e 67fc 95bd d550 d8be
00000220: 29e8 b43e 728d 2e3e 2c36 48bf aa95 233f
00000230: 0d22 3b3e 76b5 cfbe 7572 9b3e 483a 033e
00000240: 1d0c 6fbf ea88 443f 687d b83e e714 d9bf
00000250: 86f1 a43f a3f9 d53e ae78 4fbf 3932 223f
00000260: ab5a 4d3e 3820 4fbe aeed 303e e21c de3d
00000270: 3638 a2be 8005 a33e 2b09 7a3d 6d14 0ebe
00000280: 18a2 063e e56f 863d f42c 0d3e d01e af3d
00000290: 5824 a53d 5077 f9bd 9f88 e6bd ed8e 44be
000002a0: 7abc a3be 5080 b5be f506 c2be 1935 443e
000002b0: 8a66 e73d df5e bc3d a846 abbe 0961 f2be
000002c0: 8115 03bf eb86 16bf 8fd2 3ebf acfa 3abf
000002d0: c848 3c3d d5c7 e63c 6fbb 5539 db46 34bd
000002e0: 6d13 3fbd 7d55 a7bd 4b68 fcbd 2cf5 18be
000002f0: 64db ccbd f178 703e 2f6f bd3e 30bf 073e
00000300: e143 a33b e724 19be 97f7 83bd 1b58 9bbe
00000310: 914a 51bf 0057 fbbe 9008 0a3f 495d 433f
00000320: 67cc 823e 83de 12bd bad5 abbe dc43 61be
00000330: b6bc 10bf 33e5 b4bf aab0 4cbf 5e8d 3b3e
00000340: 1e58 1a3e 4a5e 543d 024f 623b 3ece 9fbd
00000350: c2a4 3b3c 2752 2bbe 8046 d4be cf77 38be
00000360: 8de2 ecbc a411 a9be 5d3d a53e f939 06bd
00000370: 8174 09bf b704 1f3f 1f09 083c 67c2 a8be
00000380: c0d6 d83e f3c3 e3bc 819f 3fbf e5bd 453f
00000390: 2a7c 2cbd 3290 a8bf b094 ab3f 99e4 7e3d
000003a0: 15a9 34bf cc55 4e3f 358f 03bd e649 16be
000003b0: e273 323e 48a4 61bb 7dac 6dbe 38a2 8e3e
000003c0: 9503 e0bb c765 0cbe 6c9b 393e 2e58 91bd
000003d0: f206 a9bd 5cf7 a1bc aa65 9abd a4fe e9bd
000003e0: 3f7d 82bd d9d5 463d 39cc 78bc 9cc3 c8b9
000003f0: 32d6 41bf fa85 76bf 388e 40bf 97da 44bf
0.9003911 1.1374412 1.0419375 0.9736937 1.2247537 0.95924973 0.02254763 0.08050498
-0.012526456 -0.7686956 -0.99683434 -0.8370432 -0.7868539 -0.99096715 -0.79226834 -0.097624935
-0.19872214 -0.06420944 -0.044495866 -0.11044084 -0.07761481 -0.05048426 -0.081269495 -0.09466722
-0.060744755 -0.088674836 -0.037518464 -0.01305946 -0.01287447 0.00057026773 0.39503303 0.769928
0.40977776 -0.36522797 -0.696502 -0.39381248 0.028318753 0.017327683 0.0076479665 0.8162598
1.7014133 0.90803754 -0.77314025 -1.6765261 -0.92626673 0.031742703 0.035251334 0.019431723
0.18305245 0.3276631 0.1455218 -0.1316238 -0.2675157 -0.14863983 0.2399662 0.50006217
0.37352204 0.5911478 0.8727494 0.6315374 0.28335568 0.5775717 0.4706791 -0.64154464
-1.3639299 -0.9159781 -1.2073855 -2.113919 -1.6737171 -0.6942405 -1.3784387 -0.9351304
0.49673855 0.8881986 0.6804194 0.8143842 1.2336301 1.0007024 0.43717137 0.86918646
0.71254504 0.010328915 0.34105858 -0.4802909 -0.09897765 0.33207828 0.19951755 0.4207139
-0.33669612 0.16744062 -0.34193948 0.12749554 0.18231934 -0.0897443 -0.18219583 0.03039239
2.3920848 -0.007629017 -0.22172907 -0.049585298 -0.14522247 0.024470974 0.2558804 0.064547
-0.10169654 0.14070538 0.25586855 -0.07065936 -0.27058882 0.41788313 -0.19793667 -0.46105635
0.6580093 -0.19775961 -0.23125228 0.37372288 -0.13782245 -0.6180122 0.9604907 -0.35549727
-0.9923356 1.4899417 -0.41477406 -0.4376283 0.7490147 -0.22490762 -0.09625926 0.24233091
-0.13072178 -0.18099332 0.32835674 -0.09741005 -0.06962972 0.18659404 -0.073235326 -0.4224917
0.35333374 0.17046145 -0.7820766 0.63900244 0.18274708 -0.4056813 0.3036076 0.12815201
-0.9337786 0.76771414 0.36033177 -1.6959504 1.2886207 0.4179202 -0.8104352 0.63357884
0.20054118 -0.20227134 0.17278168 0.10845353 -0.3168351 0.31840134 0.0610439 -0.1387498
0.13147771 0.06564311 0.1378668 0.08550799 0.08063573 -0.1218096 -0.11256527 -0.19195147
-0.31979734 -0.35449457 -0.37895933 0.1916088 0.11298855 0.09197783 -0.33452344 -0.47339657
-0.5120469 -0.5879962 -0.74540037 -0.73038745 0.045967847 0.02817146 0.00020383087 -0.044012886
-0.046649385 -0.081706025 -0.1232458 -0.14937276 -0.10002783 0.23483635 0.3699889 0.13256526
0.004982457 -0.14955483 -0.064437084 -0.30340657 -0.81754404 -0.49089813 0.53919315 0.76314217
0.25546572 -0.035856735 -0.33561498 -0.21998543 -0.5653795 -1.4132446 -0.7995707 0.18315646
0.15072677 0.051847734 0.0034531956 -0.078030095 0.011452856 -0.16730557 -0.41460037 -0.18014453
-0.028916622 -0.3302127 0.3227338 -0.03277013 -0.53693396 0.6211657 0.008302956 -0.32960817
0.4235134 -0.027803397 -0.7485276 0.7724288 -0.0421106 -1.3169005 1.3404751 0.062229726
-0.705705 0.80599666 -0.032118995 -0.14676628 0.17427018 -0.0034430195 -0.2321033 0.27858138
-0.0068363645 -0.137107 0.18125695 -0.07096897 -0.08253278 -0.01977127 -0.07538922 -0.11425522
-0.06371545 0.048543785 -0.015185409 -0.00038292713 -0.7571746 -0.9629818 -0.7521701 -0.7689604

backbone1.0.1.weight f4 [16]
00000000: 73a9 b93e 56bc 9c3f 15ac 023f 9447 fa3f
00000010: 1854 c33e eeab 203f 02a2 e83d 6c5e c13d
00000020: 787e dd3e d67b 013f f031 0f3f 44b4 0c41
00000030: 2b78 d93d a8aa c03d d255 0b3d 6dca 3e40
0.36262092 1.2244976 0.51043826 1.9553094 0.38150096 0.62762344 0.113590255 0.09441838
0.4326055 0.50579584 0.55935574 8.79401 0.10618623 0.0940755 0.03401739 2.981105

backbone1.0.1.bias f4 [16]
00000000: ba26 9040 f988 2540 57e3 3240 c9f6 2bc0
00000010: 2e04 3340 e0a4 3140 dafc 683e cd29 81bd
00000020: 999c 2b40 d216 2e40 62ba 3240 18ff 5abf
00000030: 2c56 ac3e 06cd fb3e cffd 943f a810 1dc0
4.5047274 2.5864851 2.7951257 -2.6869376 2.79713 2.7756882 0.22752705 -0.06306801
2.681433 2.7201428 2.792626 -0.8554549 0.33659494 0.49179858 1.1639956 -2.4541416

backbone1.0.1.running_mean f4 [16]
00000000: d891 2e3e 027c a93e a4e9 293f 5491 2440
00000010: 90ad a13e e8f3 2f3f a271 89c0 915c 47c0
00000020: 2ff4 823e 6fae 623f 2d01 f63f 12d8 3ebe
00000030: 3387 76c0 3df4 7840 ceae a740 0c98 2ec0
0.17047822 0.33102423 0.6637213 2.5713701 0.3157773 0.68731546 -4.295121 -3.1150248
0.25576922 0.88547415 1.9219109 -0.18637112 -3.852002 3.8899071 5.2400885 -2.7280302

backbone1.0.1.running_var f4 [16]
00000000: aa61 6b3d 210c 483d 7fe7 213e a408 813e
00000010: 18c7 a03e 8f31 693f 64fb 573e b1c5 a03e
00000020: e0a9 083d 96f6 893d 389c 233e 55f2 093e
00000030: 3f9e 8b3e f9ff 1e3e 0a98 f33e 610a c83e
0.057466187 0.048839692 0.15810965 0.25201905 0.31401896 0.91091245 0.21091992 0.31400827
0.03336513 0.06736486 0.15977561 0.13471349 0.2726917 0.15527333 0.47576934 0.39070418

backbone1.1.block.0.0.weight f4 [16, 1, 3, 3]
00000000: 58c8 64be f790 013e b411 353e 8486 2240
00000010: 7189 b43e 9a8d 30c0 b2bf fd3f f869 553e
00000020: b916 18c0 119d 38be b6bc 1fbf 89d2 8fbe
00000030: da0d f23e e9b8 a03f 716b 473f a5d9 92be
00000040: 6a8e 52bf 3a82 f7be 571c 84bd 4325 81bd
00000050: f211 243d dc67 bebc ec1e 37bf 6b59 66bf
00000060: bf06 b0bb ed06 2abf 52d3 4abf b9e9 a4be
00000070: ca4e 7b3e a809 d63e 4f92 91be d9e8 d13e
00000080: 4a40 3f3f d1c1 46bb c160 25bd fe6e 103e
00000090: 14ad 50bd d390 323e f955 f5bd d4cc 4bbe
000000a0: 910d af3f 777c 96bf cf76 5fbe 2f44 853f
000000b0: 7d62 6bbf 0700 cdbc ac05 973e 6183 67be
000000c0: 53b9 313e b08f 8c3f 4a8a c9bf 872b 703c
000000d0: a4d3 4e3f 306d 86bf 9306 0a40 27e1 dd3d
000000e0: 5303 0cc0 567d 8540 9e82 fd3c 2e0b 80c0
000000f0: 1b46 5e3f ea2a e8bc e1d3 7cbf f845 9abe
00000100: ee93 11bf 0072 04bf 5a97 a7be 4786 33bf
00000110: 99bd e5be 73bf 493e 988a 143f 2ad0 013e
00000120: 3ee6 23be 30ea 903e f9c9 3ebd 0be7 8fbf
00000130: a9f1 883f 95c6 1fbd 6849 5dbf 6bf1 4e3f
00000140: 79bc b4bd c7c9 6e3e d041 ceb9 0aa6 c8bd
00000150: f11d 0ec0 f700 f7be e5fd 2040 791f e9bf
00000160: fbb2 afbe 669d 0b40 acde 6c3d 2a2c 983d
00000170: da36 e4bc ec4c 413e 37c4 583f 382b 543f
00000180: d331 d5bc d531 2b3f 7446 623f ef4e 113e
00000190: d11b 8f3e be3d 693e 064b b73e 74c3 4b3f
000001a0: 0bf0 d83e bd9d 7f3e cbfb f73e c129 bd3e
000001b0: 82ea 913d 27e9 4f40 a583 3240 8154 3ebe
000001c0: 50cd d83e 2725 c63e 8085 813d 4cd9 51c0
000001d0: 6e41 43c0 60b9 ff3f 8ddb 6340 b085 293f
000001e0: aa7b 253f 4c5f 023f 318a acbb 37b5 1cc0
000001f0: e513 76c0 fcb2 31bf 8fb7 05be 8a09 bc3d
00000200: 8a77 7e3e 0a87 7c40 f6cc 6b3e 2def 7ec0
00000210: 0d03 6440 1ed3 da3d d1ee 69c0 5834 a43d
00000220: b5df 043e 4332 f63d 7dc4 b03e 7791 78be
00000230: 5290 fcbe d329 623e fdef 0bbf 3c40 5bbf
-0.2234205 0.12652956 0.17682534 2.5394602 0.3526111 -2.7586427 1.9824126 0.20841205
-2.376387 -0.18028666 -0.62397325 -0.28090313 0.47276193 1.255643 0.7789832 -0.28681675
-0.82248557 -0.48341542 -0.06450718 -0.06305935 0.040056176 -0.023242883 -0.7153156 -0.8998019
-0.005371898 -0.6641682 -0.792287 -0.32209566 0.24541774 0.41804242 -0.28431937 0.4099796
0.7470747 -0.0030327926 -0.040375475 0.1410484 -0.05094631 0.17438059 -0.119792886 -0.19902354
1.3676015 -1.1756734 -0.21822666 1.0411433 -0.91947156 -0.025024427 0.29496515 -0.22608711
0.17355852 1.098135 -1.5745327 0.014658815 0.8079169 -1.0502071 2.1566513 0.1083396
-2.187703 4.17155 0.030946072 -4.0013647 0.8682572 -0.028340776 -0.987608 -0.30131507
-0.5686635 -0.5173645 -0.3273266 -0.70126766 -0.44871214 0.19701938 0.5802398 0.12677065
-0.16005799 0.2830367 -0.046579335 -1.1242384 1.0698749 -0.039007742 -0.86440134 0.80837125
-0.08825011 0.2331916 -0.00039340416 -0.097972944 -2.2205775 -0.48242924 2.5154965 -1.821273
-0.3431624 2.1814818 0.057829544 0.074302986 -0.027858187 0.18877 0.846744 0.82878447
-0.026024735 0.6687291 0.8838875 0.14190267 0.2795091 0.22777459 0.35799426 0.7959511
0.42370638 0.24962516 0.4843429 0.36945918 0.07124807 3.2486055 2.789285 -0.18586923
0.4234414 0.3870022 0.06324291 -3.2788877 -3.0508685 1.9978447 3.5602753 0.66219616
0.6464182 0.5092666 -0.005265497 -2.4485605 -3.8449643 -0.69413733 -0.13058303 0.09181507
0.24850288 3.9457421 0.23027405 -3.9833481 3.5626862 0.10684799 -3.6552012 0.08017796
0.12975962 0.120213054 0.3452491 -0.2427424 -0.49328858 0.22086267 -0.5466307 -0.8564489

backbone1.1.block.0.1.weight f4 [16]
00000000: bd73 cf3f d0bd 323f 7592 6b3e 8dc2 ea3e
00000010: f838 c63f 508b 023f 1d8f c63f f5e1 053f
00000020: 9ab8 223f 69f5 553f c141 803e 01c3 273f
00000030: 818d a03f 614b cf3f 7a6f 1e40 21bc 433e
1.6207196 0.6982088 0.23005088 0.45851555 1.5486135 0.50993824 1.5512425 0.5229791
0.6356293 0.8357759 0.25050166 0.6553193 1.2543184 1.6194879 2.475554 0.19114734

backbone1.1.block.0.1.bias f4 [16]
00000000: 0b6a 5a3e 6232 e23f 14af d53f 7e8f 8a3e
00000010: 0c11 a6bb 3a7c 3340 9ea4 893d adcc 493f
00000020: 5f48 de3f 3326 c73e b2ca b83f 7990 fc3e
00000030: 25b5 6e3e ff8d 383e 2ba5 6fbe 1156 c33f
0.21329515 1.7671626 1.6694055 0.270626 -0.00506795 2.8044572 0.06720851 0.78827935
1.7365836 0.3889633 1.4436858 0.49328974 0.23311289 0.18022917 -0.2340285 1.526064

backbone1.1.block.0.1.running_mean f4 [16]
00000000: 129a 96bf 59ea adbe a23c 09c1 95e9 b6be
00000010: 8e6c 3b3e f5bc 46bf 7a8e 15bd caa5 733d
00000020: c08b 44bd a80c 083f badf 1741 c566 9e3f
00000030: b48a cb3c b330 d6bc 444f 39bd 7e97 2bbf
-1.1765769 -0.33967856 -8.577303 -0.35725084 0.18303129 -0.77632076 -0.03651283 0.05948428
-0.04798484 0.5314431 9.492121 1.2375113 0.024846412 -0.026146268 -0.04524161 -0.67028034

backbone1.1.block.0.1.running_var f4 [16]
00000000: d2c3 c041 230c be40 c228 f83f bfbf b23b
00000010: 4825 3e40 f7ec 6540 420c 353e a06b d63b
00000020: eca6 4a40 c94d 1241 75ec 2740 51f0 a042
00000030: 4e84 063e 398b 903e 2e76 0940 987a 5440
24.095615 5.9389815 1.9387438 0.005454987 2.9710255 3.5925882 0.17680457 0.0065435916
3.166438 9.1439905 2.6238072 80.46937 0.13136408 0.28231218 2.147838 3.3199825

backbone1.1.block.1.fc1.weight f4 [8, 16, 1, 1]
00000000: cd6c 7ab0 410d acb1 2029 2630 0bf5 98b0
00000010: 8d1b 28b2 013f e0b0 15ec a5b1 d1cf 85b0
00000020: 9b78 f731 7fdd 8ab1 c776 18b1 dfae d8b0
00000030: f383 57b1 abc6 5bb1 8809 48b1 8119 4531
00000040: 73ac d2b0 75da 14b1 a586 9bb0 6d10 a0b1
00000050: 57d2 ebb1 d125 66b1 efd1 75b1 65db 6bb1
00000060: 9dde 2d31 455d 08b0 e759 17b0 2b4b 6a31
00000070: 340b 9bb1 9558 84b1 a432 9f31 ffa2 03b1
00000080: f3eb b0ba dfae 41ba 8730 efba c179 fcb9
00000090: ddc7 23ba 1056 16ba 7b12 45ba 3589 ecba
000000a0: 35a0 32ba 90b5 87ba 959e 39bb a016 693a
000000b0: 5537 60b9 a455 dab9 4766 95ba 7190 a2ba
000000c0: 7599 1ab1 f979 36b1 e1a7 8731 a507 7231
000000d0: f56e 93b1 283e 4ab1 9952 15b1 8540 09b1
000000e0: e863 c8b1 f575 b330 b46c c3b0 d98d 23b1
000000f0: 0dac 13b1 8f58 64ab 5830 66b1 b502 0db1
00000100: 97e0 a7ae e98a d9b1 df37 d4b0 5d45 a6b0
00000110: 7de2 87b1 3041 cb30 1c61 e02f 7993 95b1
00000120: 1db8 19ad 0dcc d2b0 f104 972f 8c6d b0b1
00000130: b7d2 4bb1 3527 d4ae 6bc8 df30 e51f abaf
00000140: 2561 b7b1 4547 d0b0 fc69 4ab2 fd38 97b2
00000150: b8ec 54b2 afdd e130 156c b9b0 fada 9aaf
00000160: dd26 4d32 bd7b 0cb2 f035 9fb1 c71e e3b1
00000170: f021 01b2 eb5b 67b2 16e3 24b2 40c1 17b2
00000180: 7ff4 64b1 e465 4fb1 fdc9 cc31 05f4 1631
00000190: d54a 48b1 8900 0bb1 4868 afb1 b5eb 92b0
000001a0: b75f 8bb1 540c b2af 9026 76b1 a5d0 d7b1
000001b0: cb02 2ab2 95bb 4db1 f8e1 b2af 7d71 4bb1
000001c0: a45a 9eb0 95ba c0b1 0329 c5b0 08cf 54b1
000001d0: 9c2f b9b1 ac4d 62b1 3cbb 71b1 c57b 922e
000001e0: 8467 c2b0 fd4e 88b1 f78e 0fb1 83e7 1db1
000001f0: 6930 8531 07ef 05b2 83e7 4b30 0fea 0730
-9.1104085e-10 -5.0073656e-09 6.044889e-10 -1.1129101e-09 -9.785151e-09 -1.6316052e-09 -4.8289714e-09 -9.736089e-10
7.2023574e-09 -4.04151e-09 -2.2186428e-09 -1.576577e-09 -3.1361622e-09 -3.1981624e-09 -2.9109248e-09 2.868177e-09
-1.5328524e-09 -2.1661013e-09 -1.1316003e-09 -4.6584803e-09 -6.863313e-09 -3.3490901e-09 -3.5771526e-09 -3.4321712e-09
2.5301354e-09 -4.9609056e-10 -5.506124e-10 3.409421e-09 -4.5123674e-09 -3.8517762e-09 4.633266e-09 -1.9155662e-09
-0.0013498053 -0.00073884235 -0.0018248715 -0.000481559 -0.00062477385 -0.000573487 -0.00075177074 -0.0018046262
-0.0006814034 -0.0010353792 -0.0028323282 0.0008891616 -0.00021382917 -0.00041644007 -0.0011398279 -0.0012402666
-2.249718e-09 -2.655382e-09 3.9481027e-09 3.521998e-09 -4.2908774e-09 -2.94302e-09 -2.1729305e-09 -1.99728e-09
-5.832124e-09 1.305749e-09 -1.4219013e-09 -2.3800253e-09 -2.1489115e-09 -8.112477e-13 -3.3496885e-09 -2.051974e-09
-7.634176e-11 -6.3313235e-09 -1.544091e-09 -1.2097804e-09 -3.954766e-09 1.4788721e-09 4.0814363e-10 -4.3532364e-09
-8.7379244e-12 -1.5337506e-09 2.747025e-10 -5.134728e-09 -2.9660165e-09 -9.6476084e-11 1.6282348e-09 -3.112738e-10
-5.337045e-09 -1.5154248e-09 -1.1782046e-08 -1.7604629e-08 -1.2393848e-08 1.6433911e-09 -1.349124e-09 -2.816803e-10
1.1941407e-08 -8.177207e-09 -4.633641e-09 -6.6100685e-09 -7.516505e-09 -1.3466869e-08 -9.59769e-09 -8.833297e-09
-3.3317347e-09 -3.0180383e-09 5.960145e-09 2.1966582e-09 -2.9146368e-09 -2.0227466e-09 -5.1050257e-09 -1.068989e-09
-4.056314e-09 -3.238677e-10 -3.5819632e-09 -6.2810437e-09 -9.895937e-09 -2.9938054e-09 -3.2538572e-10 -2.9604899e-09
-1.1521775e-09 -5.6091474e-09 -1.4345293e-09 -3.0967744e-09 -5.389621e-09 -3.293148e-09 -3.5176546e-09 6.661297e-11
-1.4144779e-09 -3.967101e-09 -2.0890505e-09 -2.2978106e-09 3.876313e-09 -7.795967e-09 7.417997e-10 4.944533e-10

backbone1.1.block.1.fc1.bias f4 [8]
00000000: 9151 ecb0 9532 1fb1 a77f 2bb9 bd04 01b1
00000010: a12d b1b0 9199 9632 5760 c2b1 35b2 d42e
-1.7194443e-09 -2.3166298e-09 -0.00016355385 -1.8774664e-09 -1.2891413e-09 1.7532132e-08 -5.6570957e-09 9.6723e-11

backbone1.1.block.1.fc2.weight f4 [16, 8, 1, 1]
00000000: 9e24 29b0 51dc 4a31 fdaa 0f3b 6126 852f
00000010: 79de 00b1 b1e5 8a32 7b37 eb31 e07a 7031
00000020: e035 8730 d3d1 52b0 bfae cc3a 6b08 7e30
00000030: 1515 d5b1 e0e2 7e32 5de0 8131 ed2b 6531
00000040: c45a 45b0 502b 6631 34cd 913a 07d6 17b1
00000050: 14f4 07b1 13fc 0432 db92 8ab1 b539 5631
00000060: d84e 44b1 e4ad a931 d3bf fc3a 60ed 32b0
00000070: 4941 4e30 e5ad 0d32 0502 0bb0 e4f4 8d30
00000080: 138a c6b0 9c17 ca30 1b82 1f3b ad0f 462f
00000090: ad35 0fb0 15f7 3231 7548 9131 1b95 cb30
000000a0: 9c73 9db1 a31a 1eb0 f467 ee39 dceb b7b0
000000b0: d55c 4630 3817 6832 dd9c 48b0 6b69 cab0
000000c0: 00da 2530 35b8 9bb1 ecc1 133b 9f2c aeb0
000000d0: a948 0a31 28ca 5532 7d98 0731 7d25 dbb0
000000e0: 6fc2 bead 7dbe 8330 39f0 023b c454 44b1
000000f0: 7515 8e31 7813 e030 cb0b 2c31 a316 05b0
00000100: 7dbd 64b1 a192 36b0 0fa7 bb3a 8870 bd31
00000110: 2129 0630 8d57 1832 2cf1 4830 4479 9730
00000120: fc5d 7bb1 b5c9 5231 1556 db3a 8faf 2e31
00000130: 64fb 18b1 30ca 5232 5d9e 7cb1 1de7 4931
00000140: afc7 8a2e a536 70ae 7304 733a 7bb7 f5b0
00000150: 4b6f 0631 a020 5732 e5a8 fab0 5868 eeb1
00000160: bf65 50b0 3b10 1931 edce 893a 057e 1030
00000170: 8450 64b1 5061 4732 a318 7a31 15fe b4b0
00000180: 9033 8a31 e11e 96b0 313d 0a3b 7f60 3330
00000190: 3002 8830 181b c231 75c4 d9af ebb1 41b0
000001a0: 082c 47b0 cdc2 ae31 6d77 2f3b 7153 76b1
000001b0: 34e7 17b0 6c79 6232 c19e 9630 f797 b2b0
000001c0: b900 9a30 cd63 5931 89c9 093b fd71 2631
000001d0: 193e bbb0 7550 5132 9580 9e30 386e 9ab0
000001e0: ac4e 1fb1 677e 0ab1 238e 893a f426 67b1
000001f0: f9be 1bb0 d8d3 e031 a8d1 08b1 e8d8 b0b0
-6.153388e-10 2.9520104e-09 0.0021921985 2.421983e-10 -1.8752913e-09 1.6169766e-08 6.8457076e-09 3.4994443e-09
9.837855e-10 -7.6695733e-10 0.0015616043 9.2416624e-10 -6.2015126e-09 1.4836331e-08 3.7799013e-09 3.3348855e-09
-7.179717e-10 3.3494025e-09 0.0011123777 -2.2095052e-09 -1.9783828e-09 7.740726e-09 -4.033024e-09 3.1173901e-09
-2.8566571e-09 4.9383164e-09 0.0019283242 -6.5093353e-10 7.503514e-10 8.246819e-09 -5.0570775e-10 1.0328702e-09
-1.4445639e-09 1.4704145e-09 0.0024339024 1.8013564e-10 -5.2099375e-10 2.604286e-09 4.228293e-09 1.4812572e-09
-4.5824446e-09 -5.751792e-10 0.0004547235 -1.3382038e-09 7.21639e-10 1.3509457e-08 -7.298249e-10 -1.4727396e-09
6.0336447e-10 -4.5320356e-09 0.0022546006 -1.2672848e-09 2.0122946e-09 1.2444197e-08 1.9731765e-09 -1.5945002e-09
-2.1686845e-11 9.585645e-10 0.001997961 -2.8569938e-09 4.1351833e-09 1.6303678e-09 2.5035998e-09 -4.8417287e-10
-3.3286078e-09 -6.6419586e-10 0.0014316755 5.5134173e-09 4.8807364e-10 8.867471e-09 7.31023e-10 1.1021162e-09
-3.6578731e-09 3.067368e-09 0.0016734028 2.5420126e-09 -2.226181e-09 1.2269581e-08 -3.6760845e-09 2.9380722e-09
6.3109844e-11 -5.4618216e-11 0.00092703773 -1.7878244e-09 1.956283e-09 1.2522065e-08 -1.8237897e-09 -6.938574e-09
-7.581455e-10 2.2273656e-09 0.0010513939 5.256598e-10 -3.3224135e-09 1.1605451e-08 3.6393792e-09 -1.3168938e-09
4.0221906e-09 -1.0922713e-09 0.0021093602 6.525695e-10 9.895924e-10 5.6492233e-09 -3.961166e-10 -7.046583e-10
-7.245835e-10 5.086213e-09 0.0026774064 -3.5845142e-09 -5.526204e-10 1.31825395e-08 1.0959057e-09 -1.2994396e-09
1.120518e-09 3.1634386e-09 0.0021024665 2.4220974e-09 -1.362369e-09 1.2183695e-08 1.1532558e-09 -1.1236301e-09
-2.3182265e-09 -2.0153494e-09 0.001049463 -3.3637066e-09 -5.666006e-10 6.543342e-09 -1.990978e-09 -1.2867334e-09

backbone1.1.block.1.fc2.bias f4 [16]
00000000: 9eab 033f 4469 213f d60b 873e 9215 85bf
00000010: 01dd 3bbf 5908 b43f 2eb7 9bbe 61bf e9be
00000020: 1668 143f 7d29 c3be c03a 0e3f 981d 70be
00000030: ebac e6be 2429 99bd 6a59 f43d cc65 dbbe
0.5143374 0.6305125 0.26376218 -1.0397208 -0.733841 1.4065048 -0.30413193 -0.45653823
0.5797132 -0.3811759 0.55558395 -0.23448789 -0.450538 -0.0747855 0.11931117 -0.42851102

backbone1.1.block.2.0.weight f4 [16, 16, 1, 1]
00000000: 537a 04c0 7121 cc3d 25f9 43bd 392b b8be
00000010: 564f c6be ce55 37bf 3059 aabc e06c 603e
00000020: a97e 5bbe fd15 3d3e 0658 833d fa16 e8be
00000030: a165 d63e 17b8 b63e f847 63bd 7d61 43bd
00000040: 81d6 423f 80d8 0740 5e36 8abd e6fa b2be
00000050: bae4 43bf 81b3 103f 4f8e 9c3f 5d4b 1e3e
00000060: e885 0ebc c8f5 20be 24dd 78bd 6bcb 05bf
00000070: 4602 a33f 6251 7dbe b23c efbd 53e2 fe3e
00000080: c239 b93d 3c9e 85bd ad10 1cbe 87fa 3abe
00000090: 4ac6 a6bc 2445 82bd 4269 4fbc b25f 433c
000000a0: 359a aa3c c389 acbd 64f1 7d40 6ab0 ba3c
000000b0: 1f5b fa3b 8d19 7ebd 48fb aebc 8cec ef3d
000000c0: 2f85 443e 10f1 a0bf db09 9fbc 7c5c abbe
000000d0: 4711 f8bf 68c8 a63f db89 ca3d 05d7 b83d
000000e0: f862 5f3f bb81 28bf f446 9bbd df4a e73e
000000f0: 0b00 cb3e f1a4 97bf d7e5 393d 1355 3abc
00000100: dfc4 1d3e 93a3 01be a8f4 1c40 a44f 963f
00000110: c0f5 d7bd c85d 12bf 51c6 a7be aae3 a3bf
00000120: c75b 0a3e 2eb5 febb 8f7d 423e 457e aabc
00000130: 12a4 863e a854 a13e 124e db3d 0b39 0dbf
00000140: 9860 94bf 3855 a3be d4c0 3c3d 887b f63e
00000150: f8cb acbc cb73 ed3e 384d d03f c055 573d
00000160: dfba 00bf 5cf0 9fbf 070c ddbc 3c9c 1c3e
00000170: 5739 c8be 765b 68be a4d2 fabe 1b83 c13d
00000180: 8f62 0cbc b087 bc3d 0a23 1e40 5301 97bf
00000190: 396d ad3d ee77 1a3f d7e2 943e 688d 833f
000001a0: 648c fbbd 5e4d a8bc 7f31 333e b611 04bd
000001b0: a30c 96be b212 90be d0ca 14bd 9f15 363f
000001c0: 4846 07bc 6f90 d73d 25a3 2f3e 1602 833f
000001d0: 8214 123e 864c 15be be9e cfbe 7de0 2d40
000001e0: 5e3e c6bd 379c af3d 6936 47bc 3d45 983c
000001f0: daa7 8c3f 82ff 6cbf aa3d 693e a561 58bf
00000200: c5c5 8dbf 5c65 883f 8581 fe3d 550b 973e
00000210: 9fce 143d 3f52 c23f a78e e4be d084 b8be
00000220: 238a a53f 89d0 bc3e 7d16 003d 9dbd 383f
00000230: 5a89 073e dbe4 93be 0770 f1be 513a 4bbe
00000240: e52a 8c3e a859 0c3b bb82 0d3d 0a41 963e
00000250: ab13 cdbe c179 da3e c861 233f 98ad 933f
00000260: 8317 893f 55f6 85be ae9e b3bd 8a45 8a3d
00000270: 08c1 a8bf 3614 1140 4e6b 9f3d ae3d d6be
00000280: 7825 183e 6a82 653f c00c 93bd 1266 1f3e
00000290: 8fda 17bf f455 a7be 06ff 86be a1fe 793c
000002a0: 6736 7ebf 7d58 36be 71c0 c4bc 8215 4c40
000002b0: 18ab bbbe 82ff d53c 40a1 113f 814b a7be
000002c0: 14e7 96be 797c 5b3f c65e 843c 2fe2 8a3e
000002d0: 2825 e4bf ea8e ec3f 8a99 7dbf 4860 1dbe
000002e0: 831e f1bf ff7d 8a3e 5f8c 733d c7c7 1fbf
000002f0: 2eef 7dbf 4f59 8f3e ce1f c83e b3ee 4cbe
00000300: 7356 82bc b4e6 a3bf aae4 01bd 9ea3 ccbd
00000310: 78a5 62bf e687 c63f b27e 0f3f e6d0 593d
00000320: ea17 53bf 3267 863f b4c1 b23d cc85 2d3f
00000330: 1333 553f 3090 153f ea05 d0be 1861 073f
00000340: c47b 84be 733b ac3d aca4 75bb b4f6 46bf
00000350: 0c39 6c3c ccfa e9bd 91c3 70bf 977e 1e3f
00000360: e3ca a13e 5ad3 0bbe e2ca b0bc 9054 2d3e
00000370: d732 a6be 1dcb e2bd b611 943e aa95 0940
00000380: 239c 353e 6f5d c83d c7d0 993c b26f 5c3d
00000390: b860 94be 1366 f33c 400e a33f 4028 333e
000003a0: 94cf 08bd 1abd 0840 98a3 0d3d 8d0f 3a3d
000003b0: d74a 0abf 17fa d9be e9c3 1bbe fdd4 dc3d
000003c0: 9796 f43d efb0 723d 885d 09bd aa24 6fbc
000003d0: d295 72bd b5f4 d9be 8174 d4bd 6d75 2b3e
000003e0: d32f 78be 6a62 20bd 003e a33c b5ec 1c3e
000003f0: 2532 90be 5c3a dbbd c9e0 41c0 a2a3 52bd
-2.069966 0.09967316 -0.047845025 -0.35970476 -0.38732404 -0.716153 -0.020794481 0.21916533
-0.21435036 0.18465419 0.064132735 -0.4533003 0.41874412 0.35687324 -0.055488557 -0.047700394
0.76108557 2.122589 -0.06748651 -0.34957045 -0.76520884 0.565239 1.2230929 0.15458436
-0.008698918 -0.15718758 -0.06075777 -0.52263516 1.2735069 -0.24738076 -0.116814986 0.49782047
0.090442196 -0.065243214 -0.15240736 -0.18259631 -0.020358223 -0.06360844 -0.012659373 0.011924671
0.020825485 -0.084247135 3.9678583 0.022789199 0.007640257 -0.062036086 -0.021360055 0.117150396
0.1919143 -1.2573566 -0.01941388 -0.33468997 -1.9380273 1.3029909 0.09889575 0.09025387
0.8726039 -0.65822953 -0.075818926 0.4517431 0.3964847 -1.1847211 0.045385208 -0.011372822
0.15407132 -0.12660055 2.4524326 1.1743054 -0.1054492 -0.5717435 -0.3276849 -1.2803853
0.13511573 -0.007773063 0.1899321 -0.020812163 0.2629705 0.315099 0.1070825 -0.55165166
-1.1591978 -0.31900954 0.046082333 0.48141122 -0.021093354 0.46377406 1.6273565 0.052572012
-0.5028514 -1.2495227 -0.026983274 0.15293974 -0.39106247 -0.2269114 -0.4898883 0.094488345
-0.00856842 0.09205568 2.4708886 -1.1797279 0.08468098 0.6033925 0.29079315 1.0277529
-0.12282637 -0.020544704 0.1749935 -0.032243453 -0.29306516 -0.28139263 -0.03632623 0.7112674
-0.008256502 0.105255954 0.17152078 1.0235012 0.14265636 -0.14579973 -0.40550798 2.7168267
-0.09679864 0.085747175 -0.0121589685 0.018587703 1.0988724 -0.92577374 0.22777429 -0.84523994
-1.107598 1.0655932 0.12427048 0.29500833 0.03632986 1.518135 -0.44640085 -0.36038828
1.2932781 0.3687785 0.031271446 0.72164327 0.13235989 -0.2888554 -0.47155783 -0.19846465
0.27376476 0.0021415744 0.034548502 0.29346496 -0.40054068 0.42671016 0.6382108 1.1537352
1.07103 -0.261645 -0.087705 0.06751545 -1.3183908 2.2668586 0.077841386 -0.41843933
0.14858043 0.8965212 -0.07180166 0.1556628 -0.5931787 -0.32682765 -0.26366442 0.015258462
-0.9930176 -0.17807193 -0.024017544 3.1888127 -0.36653972 0.026122812 0.5688667 -0.32674792
-0.29473174 0.85736805 0.016158473 0.2712569 -1.7823839 1.8481114 -0.99062407 -0.1536876
-1.8837436 0.27049252 0.05946004 -0.6241421 -0.99193084 0.27997825 0.39086765 -0.20012932
-0.015910363 -1.280478 -0.03171221 -0.09992145 -0.88533735 1.5510223 0.56052697 0.053177737
-0.82458365 1.0500243 0.08728352 0.6778228 0.8328106 0.5842314 -0.40629512 0.5288253
-0.25875676 0.084097765 -0.0037482185 -0.7772019 0.014417898 -0.11424789 -0.9404841 0.6191191
0.31600103 -0.13654843 -0.021581117 0.1692679 -0.32460663 -0.11073897 0.28919762 2.1497598
0.17735343 0.09783446 0.01877631 0.05381746 -0.2898004 0.029711759 1.2738724 0.17495823
-0.033401087 2.1365418 0.034579843 0.045424987 -0.54020447 -0.42573616 -0.15211453 0.10782812
0.11942785 0.05925077 -0.033536464 -0.014596144 -0.05922491 -0.4256951 -0.10373784 0.16744013
-0.24236993 -0.039156355 0.019927025 0.15324672 -0.28163257 -0.107044905 -3.0293448 -0.051425584

backbone1.1.block.2.1.weight f4 [16]
00000000: be0d 8d3f b193 c53f 86ba 463f afbb b63f
00000010: 51a1 293f e250 bf3f 6b1d 303f da62 5b3f
00000020: d781 c33f 43a9 be3f 2db4 a73f bf0c b53f
00000030: 58b2 ac3f 5478 203f e216 ae3f 2119 d63f
1.1019819 1.5435697 0.7762836 1.4276026 0.66261774 1.4946558 0.6879489 0.8569771
1.5273999 1.4895405 1.310186 1.4144515 1.3491926 0.62683606 1.3600733 1.6726419

backbone1.1.block.2.1.bias f4 [16]
00000000: dae0 1abc 047d c93b df8c a2bb e7d5 37bc
00000010: 50b0 d2bb c37b da3b 0902 9dba cc65 ea3b
00000020: 7132 90bc 7e94 fc3b 10ea 663c 1018 113d
00000030: 869f d6bc 223a 31bc 4d56 993b 86fe a43c
-0.009453023 0.006148936 -0.004960641 -0.011220432 -0.0064297095 0.0066675856 -0.0011978756 0.0071532484
-0.017602177 0.0077081313 0.014093891 0.03542334 -0.026199114 -0.010817083 0.0046794773 0.020140897

backbone1.1.block.2.1.running_mean f4 [16]
00000000: 393c 0fc0 a8f1 8140 38e6 4a40 3342 d53f
00000010: fb90 283f c1cb b4be 1375 8740 44e8 aa3e
00000020: 261e a540 84ec 2540 9166 b0be cf48 0340
00000030: faab f53f 0a9d bc3f c7f9 293f f8ac d9bf
-2.2380507 4.060749 3.1703014 1.6660827 0.6584622 -0.35311702 4.2330413 0.3338033
5.15993 2.5925608 -0.34453252 2.051319 1.9193108 1.4735425 0.66396755 -1.7005911

backbone1.1.block.2.1.running_var f4 [16]
00000000: e606 903e d676 833f 1acb c13e 9652 343f
00000010: c6ae 5a3e 4bf5 0a3f 786f 673e ad91 c13e
00000020: 81b2 0140 10fc 3b3f 3408 b03f e709 bc3f
00000030: 7d82 fa3e 507a 833e 811d 273f a25f c03d
0.28130263 1.0270641 0.37850267 0.70438516 0.21355733 0.5428054 0.22601116 0.37806454
2.02652 0.7343149 1.3752503 1.4690522 0.4892768 0.25679255 0.65279394 0.093932405

backbone1.2.block.0.0.weight f4 [72, 16, 1, 1]
00000000: 5f8e 9d3e 27eb b1be 23b0 cf3c 04e7 bdbe
00000010: 40f1 123d e116 6bbf c8f0 68bd 80d7 b53d
00000020: f3fb f23e 6ec9 8ebe dafa 92be 0f96 013e
00000030: 9b82 d23e c942 773e a4e3 9e3f 0ada 4abe
00000040: 1bfe bfbc 3f4a 21bd a978 793f e01c 1c3e
00000050: f9f1 e13d 61ad bcbe 72e8 76bc b2e3 0c3d
00000060: 192a 293e 477e 05bf 4728 013e 9160 893b
00000070: 1d66 a73d e7cb 8cbe 7f87 46be 4195 c5be
00000080: a68c 86be 8f63 59bf e089 97ba cb9d f5be
00000090: f71b 66be 4ed7 fe3c e612 3a3e 4553 4cbf
000000a0: 8d1e 42bd d4b3 883f 423b 433e 5aa7 9a3f
000000b0: 425a 84bf 6847 b23e 50b5 043f 71cf d9bd
000000c0: 47f1 793d c0ea 3a3f 52e9 aebd 5b49 9ebe
000000d0: 77c6 25be c0c5 0c3d 3de0 103c 8cc0 5f3d
000000e0: bc08 a73e 01b2 913d 152d 043f e113 0e3e
000000f0: cf7e c9be fbb7 d53c 0d9c 01be 4666 c33c
00000100: 97ae 88bc 389e 823a 5130 bf3c 2263 a33d
00000110: 87f2 0c3f b88f 2d3d 7906 07bf 64f2 a9bf
00000120: de48 1d3e df59 05bf cc1b 3ebd b991 5fbc
00000130: 6dc1 633d 9969 debe fc7e 7fbd 8d26 1dbd
00000140: 6371 b33e decf 84bd 7e75 4e3d d7d5 c33d
00000150: a5f6 193f fbac e2be 6d6c 12bf 8013 6b3d
00000160: 2f07 b8be 36e4 693e 2f2e 103e 34b9 77bf
00000170: 2572 32bf 344e d53e 570d 003e 7edf ec3d
00000180: 9765 043f 6e19 003e 4a5c 03bd 75ef bd3e
00000190: 1e7e 6abe 11a1 cb3f a59f 0d3e 5c34 22be
000001a0: a25b f43d 5ffa 653d 96b8 47bd 721a f7bd
000001b0: 236a bbbe d591 f6bd b536 8abf aa1d 123f
000001c0: f349 9c3a 57ae 483e 9bca 3c3f 904a cb3e
000001d0: 5ced 913d e9c2 78be 3f26 90bc 52a8 373f
000001e0: 9821 9d3d e064 51bf 8bdf 983d 2425 dfbc
000001f0: f10b 37bd d71e 293d f010 73be 3feb d8be
00000200: 41e4 b9be 1e02 70be a272 463c 80be 61be
00000210: 5bb8 c5bd 6ed6 4b3e 76bd 9f3d 99d2 5c3d
00000220: a0d4 953e 7a16 70be 3efc 183d e441 5d3f
00000230: 38c4 093f fb5b 493d 1a80 8cbe 0b58 98be
00000240: 95e2 d43f 2830 42bf 19b2 97bd b3f4 d4be
00000250: 1c4a e2bd fa74 7e3e c304 9cbd c89e 473b
00000260: 9c08 8a3f c73d 84be e01b bcbe bb37 d33d
00000270: 6fdd c83e 6054 5d3e ffac 5b3f e46e 4b3e
00000280: d8cb 8ebd daac 1abe 343d 2b3d a55d 7dbe
00000290: 8fea 9e3d c94f 50bf 8b3f 64bd d320 a63d
000002a0: 23f4 e03e 4ff4 0abe ed25 d4be 55fd 36be
000002b0: 6928 473f e1ea 72bd 2488 8e3f e9ea c33f
000002c0: c539 8bbe bf09 6fbe 7bb3 433d 4a1e dfbe
000002d0: 9337 a93e e12a c53e 644d c0be 6766 143f
000002e0: 5d62 aa3d 09f1 513e 0f04 d93e 10c9 1abf
000002f0: 5e57 7abc a80c 06bf 56c1 bf3e 3fd4 f1be
00000300: a57c 38be 1db4 ba3d 8006 8b3f 81a3 253e
00000310: 1275 9abf 5978 7f3e ec4d b9bf 077f 0ebe
00000320: 5d0b 42be bce8 b0bc 596d 6f3c 22e1 653d
00000330: 64d3 09be a604 4ebc a58d afbe 26cd 853d
00000340: 1fb8 4cbe 955b b23d b3cd 81bd f623 593f
00000350: 9f6d 1bbd 1ceb c43d 3ca8 aa3d b4d5 803f
00000360: 5ba8 5c3e 76b5 05c0 3cbe 2dbe 1fc5 b8bd
00000370: 4f44 29bf 6177 65bd 02e3 4b3e d5a7 ecbd
00000380: f43d ff3d 10f5 303e 48eb 833c 099c 20bf
00000390: 5b2b f53e 1052 2f3e a9f8 15bf 5640 eb3e
000003a0: 9dde 8c3d 7444 e23e dd2a 123f e5f4 12bf
000003b0: 5e7b 133f 7de5 1fbf d003 6ebe 667d 00bf
000003c0: b895 afb1 9512 c3ae ec42 54b1 3cfd c0b0
000003d0: 98c1 b22f ddd5 65b1 3b3b 8b31 7bdd 71b1
000003e0: 2386 4d2f 0baf 9230 713a b7b1 754a 0ab1
000003f0: 1425 1c31 c833 c7b0 08c7 a431 e562 0d31
0.30772683 -0.3474972 0.025352543 -0.37090313 0.035874605 -0.91831785 -0.056870252 0.08878994
0.47457847 -0.27888054 -0.2870701 0.12654899 0.4111527 0.2414657 1.241322 -0.19809738
-0.023436597 -0.039377447 0.9744974 0.1524539 0.11032481 -0.36851028 -0.015070068 0.034396835
0.16519965 -0.5214581 0.12613021 0.00419242 0.081737734 -0.27499315 -0.19387625 -0.38590434
-0.2627918 -0.8491754 -0.0011561476 -0.4797195 -0.22471605 0.031108525 0.18171272 -0.7981456
-0.047392417 1.0679879 0.19065574 1.2082322 -1.0340044 0.34820104 0.5183916 -0.106352694
0.061021116 0.7301445 -0.08540596 -0.3091534 -0.1618899 0.034368277 0.008842525 0.054626986
0.3262385 0.0711403 0.5163129 0.1387477 -0.3935456 0.026088705 -0.12657185 0.023852479
-0.016684813 0.0009965366 0.023338469 0.079778925 0.5505757 0.04237339 -0.5274425 -1.3277097
0.15359828 -0.5209026 -0.046413228 -0.013645583 0.055604387 -0.4343994 -0.06237696 -0.038366843
0.35047445 -0.0648496 0.050405018 0.09562271 0.60141975 -0.442726 -0.57196695 0.057391644
-0.3594298 0.22840962 0.14080118 -0.9676697 -0.6970542 0.41661227 0.12505089 0.11566065
0.51717514 0.125097 -0.032070436 0.37096754 -0.22899672 1.5908529 0.13830431 -0.15840286
0.1193154 0.056146976 -0.04876002 -0.12065591 -0.36604413 -0.12039534 -1.0797945 0.57076514
0.0011923894 0.19597755 0.7374665 0.39705324 0.07125351 -0.24293102 -0.017596362 0.7174121
0.07672423 -0.8179455 0.074645124 -0.02723939 -0.044689123 0.041289177 -0.2373693 -0.4236698
-0.36306956 -0.23438308 0.0121122915 -0.22045326 -0.09654304 0.19906017 0.07799809 0.05391178
0.29263783 -0.23446074 0.037349932 0.86428666 0.5381503 0.049159985 -0.27441484 -0.2975467
1.6631647 -0.7585473 -0.07407016 -0.4159294 -0.110492915 0.2484931 -0.07618096 0.0030459631
1.0783877 -0.25828382 -0.36740017 0.10313364 0.3923144 0.21614218 0.85810846 0.1986652
-0.06972474 -0.15105 0.041806415 -0.24742754 0.07759582 -0.8137174 -0.05572466 0.081117295
0.43936262 -0.13569759 -0.41435185 -0.17870076 0.77796036 -0.05930603 1.1135297 1.5306064
-0.27192512 -0.23343562 0.047778588 -0.43577796 0.33050212 0.38509277 -0.37559044 0.57968754
0.083195426 0.20502104 0.4238591 -0.6046305 -0.015279619 -0.5236306 0.3745219 -0.47232243
-0.18016298 0.09116385 1.0861359 0.16175653 -1.2066977 0.24948253 -1.4476905 -0.13915645
-0.18949647 -0.021595351 0.014613473 0.056122907 -0.13459545 -0.01257435 -0.34287754 0.065332696
-0.19992112 0.08708874 -0.06338062 0.848205 -0.03794634 0.09615156 0.083328694 1.0065217
0.21548598 -2.0892005 -0.169671 -0.09021973 -0.66119856 -0.05602205 0.19910815 -0.11555449
0.124629885 0.17280984 0.016103402 -0.6273809 0.4788464 0.17121148 -0.5858255 0.45947522
0.068783976 0.4419285 0.57096654 -0.5740493 0.5761012 -0.62459546 -0.23243642 -0.5019134
-5.1101914e-09 -8.870874e-11 -3.08881e-09 -1.4041812e-09 3.2515568e-10 -3.3445453e-09 4.052166e-09 -3.5196013e-09
1.8692296e-10 1.0672648e-09 -5.332645e-09 -2.0123967e-09 2.2722064e-09 -1.4493873e-09 4.7956554e-09 2.0574416e-09

backbone1.2.block.0.1.weight f4 [72]
00000000: ca38 833f ea48 643e b6fb ae3f 264d 713e
00000010: f997 8a3e e08d 253e 3e81 833f a376 7f3e
00000020: a5c1 413e 5545 963f d816 a33f d1e5 8e3e
00000030: 1eaa 2b3f 88c9 ac3f ca13 803e 6c18 2430
00000040: 218a f63e 097c 903e 2917 0d3f 79bb a63d
00000050: 906e 64b0 cc9d da3f c9b6 0e3f 50cb ae3e
00000060: ea74 5e3f a006 2b3e d5e2 963f 7545 893f
00000070: 4255 953f eaeb 043e 0119 8b3f 866b b23f
00000080: 4d4c 7b3e 95e7 cf3e 4f93 b53f b0e5 ea31
00000090: 788c ec31 3f9b 503f bf40 1232 f466 0e3e
000000a0: 68e0 f13e 4f3d bc3f c37a 3d3e 6393 0c3f
000000b0: 6c1b cb3e 12de 923e d1cf 923e 753f 9d3e
000000c0: b548 8c3e 7a60 b43f 9f74 353f d165 da3f
000000d0: b481 ba3f 93c7 803e 2757 243e cd0b 923f
000000e0: ba63 e13d 421f 8f3f a240 233e ecff cf3e
000000f0: 51a8 cd3f 0e0a 223e a7d4 2f3f 17e3 103f
00000100: 0788 0e3e 5783 8f3f 23b0 083e 02af 863e
00000110: 0c58 6d3e 0226 113e 044f 3d3e e7a0 b53f
1.0251706 0.2229344 1.3670566 0.23564586 0.2706907 0.16167402 1.0273817 0.249476
0.18921526 1.1739908 1.2741346 0.2790971 0.67056453 1.3499002 0.25015098 5.969756e-10
0.4815226 0.2821963 0.55113465 0.08141226 -8.3103036e-10 1.7079406 0.5574766 0.3413949
0.86897147 0.16701746 1.1787974 1.0724322 1.1666644 0.12980619 1.0867006 1.3939064
0.24540825 0.4060637 1.418558 6.8364088e-09 6.8844734e-09 0.81486887 8.51304e-09 0.13906461
0.4724152 1.470621 0.18503861 0.54912394 0.3966936 0.2868505 0.28674176 0.30712476
0.2739922 1.4091942 0.70881075 1.7062322 1.4570832 0.25152263 0.16048871 1.1409851
0.110053495 1.1181414 0.15942624 0.4062494 1.6066991 0.15824148 0.68683857 0.5659651
0.13919078 1.1211957 0.13348441 0.26305395 0.23178118 0.14174655 0.18487173 1.4189728

backbone1.2.block.0.1.bias f4 [72]
00000000: 7c43 c43d d073 613f 93a0 1dbe 2027 8f3f
00000010: 2ba4 1e3f 5771 1f3f b23a a1be a78a 253f
00000020: 0d66 263f d222 37bc 3327 11be 9a64 c73e
00000030: 9432 113e 0080 27be 43a6 083f 49b8 4db2
00000040: 42db 643e 2d97 693f 3505 aa3e 0985 263f
00000050: 7524 bcb2 d9fb 6cbe d0d8 fa3e 31ff 5f3f
00000060: c79e 403e f622 5e3f d68d 87be b3d9 4bbe
00000070: 10d0 dbbe 55ec 213f c06a abbe 3333 ffbd
00000080: ae58 343f d878 8a3e ecaf aa3e b110 2ab1
00000090: 981e eab0 f18d 4c3e 6175 4eb0 79bc 443f
000000a0: d921 f93e 3fea 72be b6db 7e3f 389b e43e
000000b0: b66a 323f 9d15 343f 5316 523f 4da8 483f
000000c0: 9b5b fc3e 30f4 733e f5d3 4bbc 6d06 8b3e
000000d0: 6603 efbe 3b5c 303f fed2 1e3f be22 3fbe
000000e0: 11eb 453f dacf 9dbe cbd2 2a3f acd9 153f
000000f0: 852e d4be e61c 513f 5d8a 3a3d cbeb 5c3e
00000100: e82a 4e3f fe75 b1be aba4 3c3f 633d e63e
00000110: 96fa 1f3f 57ff 4a3f 25ff 113f 9d90 84be
0.09583184 0.8806734 -0.15393285 1.1183815 0.6196925 0.6228232 -0.31490093 0.6466469
0.6499947 -0.011177735 -0.1417511 0.3894394 0.1417945 -0.16357422 0.53378695 -1.1974472e-08
0.22349265 0.912463 0.33207098 0.65046746 -2.190266e-08 -0.23142947 0.4899354 0.87498766
0.18810569 0.86772096 -0.264754 -0.19907264 -0.42932177 0.6325124 -0.3347988 -0.12460937
0.70447814 0.2704532 0.33337343 -2.4747744e-09 -1.7034436e-09 0.19976021 -7.510917e-10 0.76850086
0.48658636 -0.2372217 0.99554 0.44649673 0.6969408 0.7034548 0.82065314 0.78381807
0.4928864 0.23823619 -0.012440671 0.2715334 -0.4668228 0.6889073 0.620407 -0.18665597
0.7731181 -0.3082264 0.66727895 0.58535266 -0.41441742 0.8168472 0.04554211 0.21574323
0.8053422 -0.34660333 0.73688763 0.4496871 0.6249174 0.7929587 0.57029945 -0.2589158

backbone1.2.block.0.1.running_mean f4 [72]
00000000: 483e f1bc 4c4a 39bc adbc 913d d2a1 c23c
00000010: 1dde 6abc 3700 d3bc 8bf6 7e3c ff16 50bc
00000020: 4813 593c 3bf1 14bd 62e3 c1bc 9a5d ccbb
00000030: 6273 653c 6da8 50bc 5b03 80bc 0b0e 25af
00000040: 4b8e a7bc 591c 1cbb 1989 adbb 8c23 123b
00000050: 4552 caae d994 74bd 59d7 663d 43cc 9c3c
00000060: c231 f4bb 5dd3 8f3b ba95 183d fbb2 683d
00000070: 1f80 213c 7c14 72bc d349 dbbb 94e8 453d
00000080: 2152 8dbb f04f 823c 5447 a43c 15ba 4a2e
00000090: c437 602c bdde 543c 1654 43af 7895 61bc
000000a0: dc29 c9bb 8656 f0bc b249 323c 6edb 24bc
000000b0: 0f3f 3e3c 3e15 95bc f8e8 be3c 20ea a7bb
000000c0: 0fc6 613b 1cad b23b fa5d b53b e7de f1bd
000000d0: 136c 243d d455 513c 7d9c 76bb 37e7 643c
000000e0: cf52 f4bc 4895 053b 9fe1 8a3b 563d b03c
000000f0: 6623 b53a 26e5 dabc d4e4 bd3b b8c2 46bc
00000100: 712a 303c c33e 1c3d 045c a53c 6c84 e03b
00000110: 789f 863c 444a 743c 949c 093c ce73 213d
-0.029448643 -0.011309218 0.07116065 0.023758803 -0.0143351825 -0.025756938 0.01556171 -0.012700795
0.013249226 -0.036362868 -0.023667995 -0.006236744 0.01400456 -0.012735468 -0.0156266 -1.5011652e-10
-0.020453593 -0.0023820607 -0.0052958843 0.002229902 -9.2005105e-11 -0.059712265 0.056357715 0.019140368
-0.0074522207 0.00438921 0.037252165 0.056811314 0.009857207 -0.014775392 -0.00669215 0.048317507
-0.004312769 0.015907258 0.020053543 4.6094756e-11 3.186327e-12 0.012992558 -1.776502e-10 -0.013768546
-0.006139023 -0.029338133 0.010881828 -0.010062082 0.011611714 -0.018198606 0.023304448 -0.0051243454
0.0034450328 0.005452765 0.0055348845 -0.118100934 0.04014213 0.012776811 -0.0037629895 0.013971142
-0.029824642 0.0020383168 0.004238322 0.021513622 0.0013819754 -0.026720595 0.0057951007 -0.0121313855
0.010752306 0.03814579 0.020185478 0.0068517234 0.016433463 0.014910284 0.008399148 0.03941708

backbone1.2.block.0.1.running_var f4 [72]
00000000: 1fa1 1641 ed61 3240 9a8d 4d41 efdb 6a40
00000010: 49ed e93f 18c8 873f f779 4541 25c1 ad40
00000020: b172 943f 4cdd f140 6864 1241 85bc b140
00000030: 3da2 7140 5062 8641 05b1 d440 342a fd25
00000040: 711d a641 9d45 4b41 f040 2f40 b57d 3f40
00000050: 3a70 0327 49dc 0b42 e0b4 5940 7838 2b40
00000060: 6937 3740 8bc9 d33f 0fa9 2d41 235b 2d41
00000070: bab3 8441 d337 1240 240f 0c41 a9c4 a441
00000080: bbd5 3c40 5adf 0440 d642 0841 f8ae 2925
00000090: 910a 0125 f217 9840 7804 b624 4ad7 5540
000000a0: c7ad 5040 0c49 8f41 dd80 9b3f 0187 4640
000000b0: 369d d240 636d 7b3f 1b65 f640 91ac a640
000000c0: f575 7940 02ae c840 d906 3940 b7ea 4c42
000000d0: fae8 a441 063c 3940 1d8e 2840 9b56 9041
000000e0: 150c 2a40 05f1 8841 c26c 1240 d7f7 8b40
000000f0: 7ffd bf41 4a45 f540 099f d43f b706 ff3f
00000100: 7f18 4f40 5970 8541 8720 e13f faee 233f
00000110: 890b 7d40 2b77 9e40 bfab 1540 bcf2 6141
9.414336 2.787227 12.847071 3.6696737 1.8275539 1.0607939 12.342277 5.429827
1.1597501 7.558264 9.149513 5.5542626 3.7755272 16.798004 6.646609 4.3917102e-16
20.764376 12.704495 2.7383385 2.9920475 1.824074e-15 34.965122 3.4016647 2.6753216
2.862757 1.6545881 10.853774 10.83475 16.587757 2.2846572 8.753696 20.596025
2.950545 2.0761323 8.516317 1.4717695e-16 1.1192546e-16 4.752923 7.893749e-17 3.3412652
3.2606065 17.910667 1.2148701 3.10199 6.581691 0.98213786 7.699842 5.208565
3.8978245 6.271241 2.891043 51.229214 20.613758 2.8942885 2.633674 18.042288
2.6569874 17.117685 2.287888 4.374004 23.998777 7.664708 1.6611034 1.9923924
3.2358701 16.679857 1.7588052 0.64036524 3.953829 4.952047 2.3386075 14.121761

backbone1.2.block.1.0.weight f4 [72, 1, 3, 3]
00000000: a838 c4bd 4e0b 0abc 6e41 8cbc db9c a0be
00000010: df28 2cbf f980 33be 9198 37be f30f fbbe
00000020: bede 3cbe a531 1f3e e0ca 993d db27 11bf
00000030: 74cd 463e 2f56 863f df46 ef3e 58d8 88bf
00000040: 779e e8be 4493 403d 131e 223d a31a 38be
00000050: d579 32be 430d 8cbe 5656 23bf 76ce 29bf
00000060: d02a 9bbe f52a ffbe ef28 a1be 1487 e2be
00000070: 250c 15bf 1773 efbe 372f 4c3e 3982 143d
00000080: c88c b33d 3d39 943a dec7 dc3c 1c67 4cbc
00000090: 7cfe a4bd 94fa 0dbf b6a1 303f 2d45 b63e
000000a0: f77b b43f 1c32 f0bf 9053 a4be 85ed 7fbf
000000b0: 866e 913f 5be4 fa3d 94c5 74bb dcfe 13be
000000c0: 118f 803e 4157 263e 3934 84bf f262 463e
000000d0: 17c9 213e e607 03bf 9723 32bc e5da 52be
000000e0: 3347 f3bd eb0c 34be f039 0abf db75 aebe
000000f0: 6b26 50be d9a6 95be 464f aebe c52e 10be
00000100: 3ff3 903e 735b cb3e 4948 b83d 30dc 5cbf
00000110: 49dd 543f 1f7a a13e 76a5 57bf 8cca d63e
00000120: 6c2e 363d 188d f8bc dd03 d0bd 157b 1c3f
00000130: 2fec 3fbf 5155 db3c 6ead 113f 09b6 37bf
00000140: 0041 ea3d 3fa1 843b 74f2 0abe 3061 a7bd
00000150: 4ace 17be 26af 1abf ce84 f0be a752 8ebd
00000160: 3745 f7be a118 9fbe 992d 34be 59d8 8cbe
00000170: 4adb 6b3c 06e9 acbe de16 efbe b750 6cbe
00000180: 41aa 80be 6f6b b5be 19e7 2fbe cd3e cbbc
00000190: 4168 a23e 1ab6 3a3d d1ec b73e 00c1 103f
000001a0: b5ab 9cbf fa6c 173e 6646 8b3e 1231 89bf
000001b0: 7994 13bd 4eca 363c e73c 913c 920f 253e
000001c0: 4767 82be e742 d5be e0cf 0c3e 60f7 bbbe
000001d0: 024c 15bf f60f b03d 9355 5f3e 4c85 3a3d
000001e0: 55f6 813e 6b6e 093f 1dc2 173f f9be 923e
000001f0: 557f 283f 92bd 053f b645 aa3d 7913 163e
00000200: 97e7 3b3e a382 c23d 1673 0ac0 b78c 1b3e
00000210: e499 753e f524 803d c4f5 c33e 5938 9fb0
00000220: 64df 84b0 5745 b4b0 907a 42b0 dcc8 cdb0
00000230: d3eb a7b0 48f9 c4b0 09d6 90b0 ad07 d6b0
00000240: 6874 bfbc 1c9e c43c 5010 85bc d40b 1d3e
00000250: a94b 643f 0768 0d3f ec6f 0d3e c743 423f
00000260: c76a 123f adbb 3e3d 1d05 fbbd eb12 c0bd
00000270: 3504 03be cb6d 6bbf 1cf1 64bf dd19 eebc
00000280: 7b75 d8be e613 0bbf 4375 a13c 2842 8f3c
00000290: bf40 0ebd 1a75 813c e117 de3e fac4 ef3e
000002a0: 7cc8 adbd 6052 ce3e 54d5 0f3f 4859 833e
000002b0: 9537 303f ca61 26bf 7b77 2bbf 198a ed3e
000002c0: 5d24 ec3f 1a12 d73e 9e8b e4bf 8b47 02be
000002d0: dc0f a531 b7dd 0832 b515 0532 a7b6 4431
000002e0: fb35 5532 90de c731 c0e4 5c31 9d2c 36b0
000002f0: 452a b231 7a78 c2bc e9a2 a53e d6b2 923e
00000300: 6212 823e 94bf 5c3f 1cf3 033f 17cd 6f3e
00000310: 34f7 223f 65af b13e cb4e b83d 177a e73d
00000320: afe7 e73d 86b3 833e ba19 0b3f da4e bd3e
00000330: 53c8 2e3e 5786 033f 4387 083f a16d d13c
00000340: 6c2d 003f 0957 233f a556 40be bbb6 febf
00000350: 6c6b cabf d453 503e 5235 b83f b520 9e3f
00000360: 6b94 39bb 6eae 093d b3cd 043d c18b 6bbd
00000370: 766a 4ebe 0d38 55be 0b18 09be 5272 c3be
00000380: bfbd bdbe 0f67 ccbb 1a26 92be 8bbb b43e
00000390: ec7f 89bd 3ba8 b33f 2fa5 aebf 2bf6 913d
000003a0: df0c 97bf 27eb 7e3f 0dcf 74bd d32f e3bd
000003b0: 9a3e 8fbd c014 32be b61b f3be 4447 97be
000003c0: dda3 25be bc62 c2be 74ae a7be a037 3dbe
000003d0: 91dd b5be 7c6b 64be 3d3c 6abe f7b0 0abf
000003e0: 094e 98be 41a6 1f3d 19fd 8f3d 4bd2 0d3e
000003f0: d0c1 74bc 6f20 39be e0d8 27be 2cc8 e6bd
-0.09581119 -0.008425547 -0.017121043 -0.3136967 -0.67249864 -0.17529668 -0.17929293 -0.49035606
-0.18444344 0.15546282 0.075093985 -0.5670144 0.19414312 1.0495051 0.46733758 -1.0691023
-0.454334 0.047015443 0.039579462 -0.17978911 -0.17429288 -0.27353868 -0.63803613 -0.6633066
-0.303061 -0.4983746 -0.31476542 -0.4424368 -0.58221656 -0.46767494 0.19939886 0.036257003
0.08767086 0.0011308562 0.026950773 -0.012475755 -0.080563515 -0.55460477 0.6899675 0.35599652
1.4100331 -1.8765292 -0.32095003 -0.999718 1.1361854 0.122505866 -0.003734921 -0.1445269
0.2510915 0.16244222 -1.0328437 0.19373682 0.15799366 -0.5118393 -0.010872743 -0.20591314
-0.118788145 -0.17583053 -0.53994656 -0.34074292 -0.20327155 -0.29228857 -0.34044856 -0.14080341
0.28310582 0.39718208 0.08998162 -0.8627348 0.83150154 0.31538484 -0.8423685 0.41951406
0.044477865 -0.030340716 -0.10156987 0.6112531 -0.7496976 0.02677408 0.5690526 -0.7176214
0.11438179 0.0040475423 -0.13569051 -0.08172834 -0.14824787 -0.60423505 -0.46976322 -0.069493584
-0.48294994 -0.31073478 -0.17595519 -0.2750881 0.014395544 -0.33771533 -0.46697134 -0.23077665
-0.25129893 -0.35433528 -0.17178 -0.02481022 0.31720164 0.04558382 0.35922864 0.56544495
-1.2239901 0.14787665 0.27202147 -1.07181 -0.036030266 0.011156632 0.017729236 0.16119221
-0.2546942 -0.41652605 0.13751173 -0.3671217 -0.58319104 0.08596794 0.21809988 0.045537278
0.2538325 0.5368411 0.5928057 0.28661326 0.65819293 0.52242386 0.083140776 0.14655866
0.18350063 0.09497573 -2.1632743 0.15190397 0.23984486 0.06257049 0.38273442 -1.1584788e-09
-9.667755e-10 -1.3116431e-09 -7.075096e-10 -1.4972801e-09 -1.2217874e-09 -1.4331727e-09 -1.0538211e-09 -1.5572731e-09
-0.023370937 0.024001174 -0.01624313 0.15336543 0.8917795 0.5523686 0.13812226 0.7588467
0.5719418 0.0465657 -0.12256835 -0.09378608 -0.12794574 -0.91964406 -0.89430404 -0.029065067
-0.4227713 -0.5432724 0.019709235 0.0174876 -0.034729715 0.015802909 0.43377593 0.4682997
-0.08485505 0.40297222 0.5618489 0.25654054 0.6883481 -0.64992964 -0.6697919 0.46394423
1.8448597 0.42005998 -1.7855108 -0.12722604 4.803935e-09 7.966654e-09 7.7465545e-09 2.862558e-09
1.24105055e-08 5.8169647e-09 3.2144243e-09 -6.6274614e-10 5.1852873e-09 -0.023739088 0.32350853 0.28652066
0.2540465 0.86229825 0.5154283 0.2341808 0.6365845 0.34704128 0.089994036 0.11302584
0.11323487 0.25722903 0.5433613 0.3697422 0.17068605 0.5137686 0.53331393 0.02556497
0.5006931 0.6380468 -0.18783052 -1.9899515 -1.5814033 0.20344478 1.4391272 1.2353731
-0.0028317224 0.033613615 0.032422733 -0.057506327 -0.20157799 -0.20822163 -0.13388078 -0.38173157
-0.37058827 -0.0062378715 -0.28544694 0.35299334 -0.06713852 1.4035715 -1.364416 0.07127031
-1.1800803 0.99577564 -0.05976777 -0.11093106 -0.06994362 -0.17390728 -0.4748208 -0.2954656
-0.1617579 -0.37965953 -0.32750285 -0.1847825 -0.35520604 -0.22306627 -0.22874542 -0.54176277
-0.29747036 0.03897691 0.070306964 0.13849752 -0.014938787 -0.18078779 -0.16391325 -0.112686485

backbone1.2.block.1.1.weight f4 [72]
00000000: 7549 943f 4bc1 593f 96bf ed3e 5f4e 5d3f
00000010: 9f6d 723f 80bf 733f 39e0 dd3e 2bbd 713f
00000020: 2fa4 843f 89ec 863f 206b 0640 cd2c 813f
00000030: bbf6 c23e 5d07 313f fe82 b13f edc2 2532
00000040: 7c7a 6c3f a237 753f 2f3f a53e 0869 2a3f
00000050: 6d2f 9232 434d 733f 27dd da3e 51f7 a73f
00000060: 895e 1e3f 891e b33f 76aa 883f 64a2 943f
00000070: 4f4f 973f 2885 933f 312d 833f 637d 083f
00000080: b480 953f 74bb d83e 8ebe 653f f82d 8c31
00000090: c905 8931 1625 ea3e af21 5b31 76e3 823f
000000a0: 501c 4b3f b7fb 963f d3b7 ab3f e0de 4d3f
000000b0: c677 8b3f 89ca a53f 0c55 b13f edc6 ff3e
000000c0: 7a53 803f 3103 e43f 7390 453e a04f 8a3f
000000d0: d2de f13e b312 613f 2ea5 273f b432 543f
000000e0: e407 9d3f 0b5d 283f eb32 8e3f 01ec 673f
000000f0: b659 2d3f 1047 803f 117b da3e 2317 c73e
00000100: 992a 713f 705f 0b3f 7905 5d3f 9f70 793f
00000110: 5008 9a3f c8ac 913f b2ed 573f 0fd6 943f
1.1584917 0.85060567 0.4643523 0.8644771 0.9469852 0.9521408 0.4333513 0.9442927
1.0362605 1.0540935 2.1002884 1.0091797 0.38078865 0.6915186 1.3868101 9.648585e-09
0.92374396 0.95788014 0.32274768 0.66566515 1.7018204e-08 0.9503977 0.4274685 1.312235
0.61863 1.3993694 1.067702 1.1612058 1.1821078 1.1525011 1.0248166 0.53316325
1.1679902 0.42330515 0.8974389 4.0797623e-09 3.9878825e-09 0.4573142 3.1887841e-09 1.0225666
0.79340076 1.1795567 1.3415474 0.80418205 1.0895927 1.2952434 1.3854079 0.49956456
1.0025475 1.7813474 0.19293384 1.080555 0.4724031 0.8791916 0.6548642 0.82889867
1.2268033 0.6576697 1.1109289 0.9059449 0.67715013 1.0021687 0.42672017 0.3888484
0.94205624 0.544425 0.86336476 0.9743747 1.2033787 1.1380854 0.8434707 1.1627825

backbone1.2.block.1.1.bias f4 [72]
00000000: 608f 5c3f 86be b9bb 39fc 3240 3fe4 083e
00000010: 7106 98bd 9075 fcbd 9925 983f 1da0 403d
00000020: 9e5d 113d 0f92 243f 1fa0 c4be ed78 57be
00000030: 25c8 a23e e4ce 233f 4a3b c9be e65e 0a32
00000040: fc35 4a3f aaaf 483d ce28 b43e 31e4 fabc
00000050: d4c6 93b2 10f8 423f bfc6 ad3e c45e 483d
00000060: cd8d f93b 616c febc da51 773e ae52 d3bd
00000070: ece4 fc3d 268e 98bc c7f3 d8bd d00b 4d40
00000080: 863e 04be 3b9b 003e 7ee4 373f f70a 80b1
00000090: 1f01 6fb1 b131 a93e 98bd c6b1 9cd6 ddbd
000000a0: 3209 de3c bf53 cabe 9efe 5bbe 899b c13d
000000b0: 673c f93c 950f c8bd 3ffc 64be de79 233f
000000c0: 360d 7fbb b0fc 03bf fa41 503e a8d5 433f
000000d0: 6e5d 3040 3772 48bd 7b41 f93c 65a1 783e
000000e0: 50d2 e6bc 7029 533f 6e0b 34bd 1cb3 243d
000000f0: 35c7 243f 3f5e 88bd 8be9 0d3f 7448 843e
00000100: 1acb 3a3b 09d8 f73e 53f8 b0bc bd53 9b3c
00000110: 0778 c6bd 7bc5 cfbc 4030 47bd e879 b5be
0.8615627 -0.005668464 2.7966444 0.13368319 -0.074231036 -0.12327111 1.1886474 0.047027696
0.03548967 0.6428537 -0.38403413 -0.21042223 0.31793323 0.63987565 -0.39303046 8.054235e-09
0.78988624 0.04899565 0.35187382 -0.030626388 -1.7203469e-08 0.76159763 0.33940694 0.0489185
0.007615781 -0.031057538 0.24152318 -0.10318504 0.12348351 -0.01862247 -0.10593372 3.203846
-0.12914476 0.12559216 0.71833026 -3.726537e-09 -3.4779715e-09 0.33045724 -5.7841127e-09 -0.10831949
0.027103994 -0.39517018 -0.21483847 0.09453494 0.03042431 -0.09768597 -0.22361849 0.6385783
-0.0038917786 -0.51557446 0.20337668 0.7649789 2.7557025 -0.04893705 0.030426731 0.24280317
-0.028176457 0.82485104 -0.043956213 0.040209875 0.64366466 -0.06658601 0.55434483 0.25836527
0.0028502406 0.4840701 -0.021602785 0.018960828 -0.09690862 -0.02536272 -0.04863 -0.3544457
